convolutional-neural-networks/cifar-cnn/model_cifar.pt (torch_old, 924077 bytes, 10 tensors)

conv1.weight f4 [16, 3, 3, 3]
00000000: 2693 d2bd 1378 cb3d abab 313e 7a2a aebe
00000010: 9287 c0bc 65ae 133e 22a9 a2be 8979 73be
00000020: f116 88be ce95 5c3e f5f3 b23c 2b49 7e3e
00000030: 240e 65be 5000 47be b06a 4e3d b250 c9bd
00000040: 9129 90bc e6da fc3c ff1e 693c 4ae1 1abe
00000050: 2345 173e 1651 d93d 6d13 c33d fdb0 29be
00000060: 6e29 f13d c9a9 e1bd e366 3e3d 9ce0 21bf
00000070: 49c1 813f 5771 fabe fe4f b7be 385a 4b3f
00000080: 596b febe ed6e 46be ed46 683e 7802 6cbe
00000090: 0d28 29bf d93e 8d3f e41e 9cbe 3760 20bf
000000a0: 3e48 6c3f f076 a9be 60ce 813c 15b8 c93e
000000b0: 5522 b4bd 1aeb edbe afd4 6c3f 805b 14bf
000000c0: 6133 09bf 2042 613f 76a7 c9be b99b 00bd
000000d0: 23c0 4a3e 7f32 86be 80be 0a3e 14d1 d53e
000000e0: a671 d53e d436 553c aef0 5d3c bd01 443e
000000f0: f269 273d 8d97 04be f427 61bc 8b9d f3be
00000100: fb1a 18bf d841 8dbe 343b e4be 1832 b2be
00000110: 5233 efbd f5e9 e3bd dbf0 12bf 7557 eabe
00000120: 5ac3 ee3c 0674 903d 8570 a33d 5f1d 90bd
00000130: 65f1 9abe fcdc 19be 6e4b 843e 6c4e 84be
00000140: 5daa 85bc 9ed2 fb3e 6044 c9be 016b 62be
00000150: 5580 423f 9118 07be 4dad 04bf df27 8ebe
00000160: efe6 263e 7b5c dd3d 9724 ee3e 97c5 abbe
00000170: 3c0e 49be 8551 173f c041 37be 0d73 3ebf
00000180: ba3c 03be f6f4 a83e 7e9b 06be 50c5 003f
00000190: 0ad1 eabe f511 c8be 5d98 2e3f 241a 3a3d
000001a0: cd9d 3fbf 5886 31bc 40cb e33e 9757 903e
000001b0: 7605 2f3f 6687 4b3f ac9a a03e d4ed 283e
000001c0: d019 d3bc 7877 a8be 904c debd 2a24 edbd
000001d0: 0dda 853d 6770 053f 03c0 103f f6df a93e
000001e0: 8f50 f5bd f77e 25bf c637 45bf 9da6 e0be
000001f0: 0253 16bf 601d 93be 7cf6 873e 1763 b43e
00000200: ec98 ae3e dbfe 46be 88d2 c0be 2699 96be
00000210: 19cb 0c3d f844 47bd e77a e43d e827 a73e
00000220: 1642 9c3e a5c3 b6be 5ce4 9c3e e6f7 223e
00000230: ad0c d53e 8a77 ffbe 4ac2 3cbf 2c98 cabe
00000240: 41a6 abbd 302a 823e 5861 98be 0574 1f3e
00000250: ede1 093f 4c1c 3c3f 8af9 35bd 28f3 dcbe
00000260: 2241 803e 459d 11bf 5fda dcbe 8ec9 0cbf
00000270: cda2 803d a91d d63e 4c95 083f 95e5 a53d
00000280: 4727 90bd 4407 9abd e943 0bbe a320 c23e
00000290: cf61 073f 8e6a c7be b2f8 d9be 47a0 6c3e
000002a0: 2021 e63e d9ba 2cbd 57f5 88be 8bf9 a9be
000002b0: 271b 553e c188 e83e e08c 56be 2442 1abf
000002c0: 037f cdbc cacf 223e 9313 77be 73e7 c4be
000002d0: 6161 3abe b8bc e23e 2b0b 153f 88d8 5abe
000002e0: ac3f 0bbf 8e7f cc3d a8a5 053f cdfd 2fbe
000002f0: d7fd e9bd d16c 973d e1ea 863e 1159 4e3e
00000300: 7897 3d3e dd08 c63e 9ad0 663e be57 f23d
00000310: 95a2 9b3e b535 463e 38b4 293e edfc 2abe
00000320: 45f5 a6be addf 6f3e e6cc 3b3e 3b75 6ebe
00000330: 96fc 873d ec4b 48bb 78bb 1cbe 504a 8c3e
00000340: 0ccd 45bd 1c5e 9abe 0071 b03d 2e12 443e
00000350: 8caa 65be b2e0 26be 9f2f 04be 6314 86bd
00000360: 7d91 bcbd f51b 0bbe f1ec 8dbc 64cb c2be
00000370: 27c1 a7be 3c5b 8abe f940 d6be bbb8 debe
00000380: e02b 4f3d 1216 fe3c 8e22 333e 9f50 0ebc
00000390: c99f 33be 7d9a f5bd 4ff6 a0bc 1533 c8bc
000003a0: da20 73be eeda a53c 5b81 9f3d 8b0f 41bd
000003b0: c8c7 54bd f7f9 82be 9297 ddbe 9d24 d9bd
000003c0: 156f c4bd 80d1 c5be 59d0 673e 3619 52be
000003d0: e245 633e 5038 3f3e 72b8 873e 3ce3 8ebc
000003e0: d8c8 df3c 916b 893e fef1 0cbe 97cd aebe
000003f0: 76cf cbbd a5d2 8d3e 3810 473e 7667 883e
-0.102819726 0.09935012 0.17350642 -0.34016782 -0.023502145 0.14421995 -0.31769663 -0.2377683
-0.26580003 0.21541521 0.021844843 0.24832599 -0.22368675 -0.19433713 0.050394714 -0.098298445
-0.017597945 0.030866098 0.014228581 -0.15125003 0.14772467 0.10611169 0.095251895 -0.16571422
0.1177548 -0.11018712 0.04648484 -0.6323335 1.0137111 -0.48914596 -0.35803217 0.7943454
-0.49691275 -0.19378252 0.22683306 -0.23047817 -0.6607674 1.1034805 -0.30492318 -0.6264681
0.9229773 -0.33098555 0.015845478 0.39398256 -0.08795611 -0.4646843 0.9251203 -0.5795212
-0.53594023 0.87991524 -0.39385575 -0.03139851 0.19799857 -0.262104 0.13549232 0.41761076
0.4168827 0.01301356 0.013546152 0.19141288 0.04087252 -0.12948437 -0.013742436 -0.47581133
-0.5941617 -0.27589297 -0.44576418 -0.34803843 -0.116797104 -0.11128608 -0.57398766 -0.4576985
0.029145885 0.0705338 0.07980446 -0.07036852 -0.30262294 -0.15025705 0.25838798 -0.2584108
-0.016316587 0.49184126 -0.39309978 -0.22111131 0.7597707 -0.13192965 -0.51826936 -0.27764794
0.16299032 0.10808655 0.4651229 -0.33549187 -0.19634336 0.59108764 -0.17896175 -0.74394304
-0.12816134 0.3299939 -0.13145253 0.50301075 -0.4586261 -0.390762 0.6820124 0.045435086
-0.7485016 -0.010835253 0.44491005 0.28191826 0.6836771 0.79503477 0.31368005 0.16496974
-0.025769144 -0.32903647 -0.10854447 -0.11579163 0.065357305 0.5212464 0.56542987 0.3317868
-0.11978256 -0.6464686 -0.7703823 -0.43877116 -0.5872041 -0.2873335 0.2655524 0.3523185
0.34101045 -0.19433157 -0.37660623 -0.29413718 0.034373377 -0.048649758 0.11156254 0.32647634
0.3051917 -0.3569614 0.30642974 0.15914878 0.41611233 -0.4989589 -0.7373396 -0.39569223
-0.0838132 0.25422812 -0.29761767 0.15571602 0.5386036 0.7348068 -0.044427432 -0.43154263
0.25049692 -0.568806 -0.43135354 -0.5499505 0.06281052 0.41819504 0.5335281 0.0810043
-0.070387416 -0.07520917 -0.13600124 0.37915525 0.5288362 -0.38948482 -0.42572552 0.23108016
0.44947147 -0.04217038 -0.2674968 -0.331982 0.20811139 0.45416835 -0.20952177 -0.6025717
-0.025084978 0.15899578 -0.2412856 -0.38457832 -0.1820121 0.44284606 0.58220166 -0.21371663
-0.5439403 0.099852666 0.52205896 -0.17186661 -0.11425369 0.07393802 0.26351073 0.20151164
0.18514812 0.38678637 0.22540513 0.11833142 0.30397478 0.19356425 0.16572654 -0.16698046
-0.32609 0.2342517 0.18339881 -0.23286907 0.06639974 -0.003056283 -0.15305889 0.27400446
-0.04829125 -0.30149925 0.08615303 0.1914756 -0.2242834 -0.16296652 -0.12908791 -0.06546857
-0.09207437 -0.13584884 -0.017324897 -0.380458 -0.3276455 -0.2702273 -0.41846445 -0.43500313
0.05057895 0.031016383 0.1749365 -0.008686214 -0.17541422 -0.11992357 -0.0196487 -0.02443842
-0.23743 0.020245995 0.077883445 -0.047133964 -0.05194834 -0.25581333 -0.432797 -0.106026866
-0.095915 -0.38636398 0.22638072 -0.2051743 0.22194627 0.18673825 0.26507908 -0.017442338
0.02731745 0.2683988 -0.13764188 -0.34141228 -0.099516794 0.27699772 0.1943978 0.26641434

conv1.bias f4 [16]
00000000: 9ac0 d9bd a02c 8e3d ab8e 28bf 6708 0d3e
00000010: 3d21 4a3d d860 32bd 8671 c63d c1ef 533f
00000020: c46f c03d de0d e63e 1459 2c3f f30e 403c
00000030: a579 5e3e 3c28 95bd a49c 173f fd48 49bd
-0.10632439 0.06942105 -0.65842694 0.13772736 0.049348105 -0.04354939 0.096896216 0.8278771
0.093963176 0.44932455 0.6732342 0.011722314 0.21726091 -0.07283065 0.5922339 -0.049141873

conv2.weight f4 [32, 16, 3, 3]
00000000: d0e9 343d 6b7c 793d 37c0 9f3c 8562 0ebd
00000010: 86da 613d c9af debb 50d9 573d 10f1 403d
00000020: a374 7b3c 47f7 5e3e dfed 1b3d 2e02 183b
00000030: f9ae 8d3e 674b 3e3d 33ec e83c 35f4 193e
00000040: 8fa7 dd3d f831 193e 0cfa e1bd 2095 1c3d
00000050: 9afb 22bd 3056 cfbd 2f55 9ebc aade a63d
00000060: 9499 df3c 1cef c53d 9df1 b83d bbf2 d23c
00000070: 7035 b2bc a64f c5bd 73d2 cf3d 9d1d d73d
00000080: 2efe e9bc 7ff1 093e a9c7 353e dd1d 8fbc
00000090: 4b0b 6cbd 6610 e0bd fb89 273c 9a40 08bd
000000a0: 93af c1bd 1af1 6dbb 636a cc3d 5adc 0a3e
000000b0: 4201 33bb bc1e c03a 6a8b 86bb 84a8 14bc
000000c0: 6cb5 f23c 4506 9dbc 5c35 98bd 6e33 1e3e
000000d0: 29df 0d3e 2195 cebb 082f 22bd 1f43 dcbc
000000e0: 58aa cf3c 5033 bcbd 2762 84bd e33c 00bd
000000f0: d997 b43d 708a 1a3e 00ea bd3d 54c9 84bd
00000100: cd9a 17be 6af6 36be c7bc 0dbd 29fc 5ebd
00000110: 51a5 d8bd b094 0c3d e531 fe3d 35e7 80bc
00000120: 5c98 a23c fe3d 95bd 3e9f 9dbc d8f7 c1bb
00000130: 2e7a 6dbd 0a97 833c 6c98 80bd 8205 afbd
00000140: e368 dcbd c7ed 3f3d 772f b3bd 6111 cdbc
00000150: 2437 6cbd 3c74 9ebc 8df9 11bd f24c 4c3d
00000160: c875 263c bae8 2f3d ee91 193d 4db8 9e3d
00000170: 3137 9a3d ca99 0dbd b55a 60bd ab8a 0c3d
00000180: 5f57 2c3c 0238 5dbd c7ea f8bc 3ae3 d2bb
00000190: c72d 193b 599d 3cbd 0015 c3bc 924a e43d
000001a0: 9ce6 02bd a73a 7dbd 7d3e 143e 7d36 d23a
000001b0: 2d0d ef3c 18dc d3bc 296d d13b f730 ab3d
000001c0: 6f35 97bc 30b6 283d 44cb de3d a17d 23bd
000001d0: e961 89bd 3942 f1bd c478 923c 1b88 05be
000001e0: f898 3f3d 6784 983d aff3 673d 886c 063e
000001f0: 0c0b b23d 9011 483d c8d6 263e ca87 d93d
00000200: 3b02 a63d 425b afbd 694f 00bd afb6 1fbc
00000210: 1886 70bd 338a 04be 5f3b 22bd cd18 b3bb
00000220: a3b4 d13c 3171 433d 5973 76bd 97f0 993d
00000230: c056 8abd d55f 77bc 161d c43d 9215 44bd
00000240: b940 033c 59a4 933d 4fdc 5c3d b257 4abd
00000250: e633 2dbc 8d23 d8bc 835d e3bd b1df 973c
00000260: 687e ddbd cf59 83bd 8d83 60bd cd05 933d
00000270: 0181 8ebd f652 9bbd f5fa d3bd 415f 313d
00000280: 5963 1dbd 74ad a13d 697c dd3d 687e f63d
00000290: 64f7 8fbd 3300 e1bd f0a9 51be abb8 37be
000002a0: ef62 2ebe 4184 d2bd 01fe 11bb 3a4c 663e
000002b0: 7e8b 273d e6e5 c93d c11c fb3c fea0 4fbe
000002c0: c5f6 c4bd 7d4e d8bd 97b8 50be 0863 123d
000002d0: 6a57 513d b750 883d 6155 df3b 9e28 f73d
000002e0: cbd0 c33d 6943 213d 7758 4f3e aa18 243e
000002f0: 7361 423e 6771 09bb 4357 a9bc bcbe ac3d
00000300: 64f8 2f3e 2f16 033d 12af 513d 4268 0f3d
00000310: e8ae 353d cf81 9d3c fc69 ec3d e749 863d
00000320: c1e2 dc3d a7b8 1ebe 96e9 37bd aca4 8cbd
00000330: 7e3b ac3c 7641 7ebb a6a4 9bbd 0fe2 51be
00000340: 0331 99be 30bb edbd 95a8 debd 4c2d d43b
00000350: 3ffb 7b3e 495a 6a3e c610 cd3d 090a 563e
00000360: 2b46 ea3e c3fa a53e 6f31 683e e009 593d
00000370: 5ce2 32be 66a4 5ebe 1d00 d3bd a68a f7bd
00000380: f84f 1cbe 9ad1 35be 9401 84bd cc90 b9bd
00000390: 8f7c a5bd 5b20 523d 28a7 cb3d e662 c73d
000003a0: 169d 983c b043 f53b fbe4 54be 6db4 45be
000003b0: d878 3c3c 1bb4 d0bd 1d1a 783b dbb2 233e
000003c0: 911d 503d 9326 f43d c61a ab3d 65ee c7bc
000003d0: 8f32 883c aae2 e03d d2b7 153e 7004 40bc
000003e0: 103f 48be f20f a1bd e29d 3abe 8b56 e4bd
000003f0: 6a0b 1dbd 30b5 2cbe 520b 94bd 242d 673d
0.044168293 0.06090967 0.019500835 -0.034761924 0.05514004 -0.0067958576 0.05269748 0.047104895
0.015347633 0.21774016 0.03806865 0.0023194659 0.27672556 0.046458628 0.028432941 0.15034564
0.10822975 0.14960468 -0.11034021 0.038228154 -0.039790727 -0.10123861 -0.019327728 0.081479385
0.027294911 0.09664747 0.09030459 0.025750509 -0.021753997 -0.09634332 0.10147562 0.10503695
-0.028563585 0.1347103 0.17751946 -0.017470295 -0.057627957 -0.10940628 0.010225768 -0.033264734
-0.09457316 -0.0036307038 0.09981229 0.1356062 -0.0027313982 0.0014657597 -0.004105975 -0.00907338
0.029627524 -0.019168029 -0.074320525 0.15449306 0.1385466 -0.0063043986 -0.039595634 -0.026887475
0.02534978 -0.091894746 -0.064640336 -0.031308066 0.08818025 0.15091872 0.092731476 -0.06483713
-0.14805146 -0.17867437 -0.03460386 -0.054439697 -0.105784066 0.034321487 0.124118604 -0.015735248
0.019848041 -0.07287215 -0.019240972 -0.005919438 -0.057977848 0.016063232 -0.06279072 -0.085459724
-0.10762193 0.04685762 -0.087492876 -0.025032701 -0.057669774 -0.019342534 -0.03563838 0.04987807
0.010159917 0.042946555 0.037492685 0.07749996 0.07530058 -0.034570493 -0.054774005 0.03431193
0.010518878 -0.05400849 -0.030385388 -0.006435779 0.0023373233 -0.046048496 -0.023813725 0.11147036
-0.031958207 -0.061823513 0.14476962 0.0016037967 0.029181087 -0.025861785 0.0063911867 0.08358949
-0.018458096 0.041189373 0.108786136 -0.03991473 -0.06708128 -0.11780209 0.017879851 -0.13040201
0.04677674 0.07447129 0.05662888 0.13127339 0.08693513 0.048844874 0.1629287 0.10621603
0.08105894 -0.08562328 -0.03132573 -0.009748145 -0.05872163 -0.12943344 -0.039607402 -0.005465603
0.02559883 0.04771537 -0.060168598 0.07516592 -0.067548275 -0.015098532 0.0957586 -0.047872134
0.008011037 0.07209081 0.05392104 -0.04940004 -0.010571456 -0.02638414 -0.1110182 0.018539282
-0.10815126 -0.06413614 -0.054812957 0.07178841 -0.06958199 -0.07584183 -0.10350601 0.04330373
-0.038424823 0.07894412 0.10814745 0.12035829 -0.07029608 -0.10986366 -0.20474982 -0.17941539
-0.17029928 -0.10279132 -0.0022276642 0.22490016 0.040904514 0.09858303 0.03065336 -0.20276257
-0.0961738 -0.105618455 -0.20382915 0.035738975 0.051108755 0.0665602 0.006815598 0.12068294
0.095613085 0.039370928 0.2024859 0.16025034 0.18982486 -0.0020972134 -0.020671492 0.08434817
0.17184597 0.032003578 0.05119235 0.035011537 0.044356257 0.019226937 0.115436524 0.065570645
0.107854374 -0.15500127 -0.0449005 -0.06867346 0.021024462 -0.0038796342 -0.075997636 -0.20496391
-0.29920205 -0.11607969 -0.10871998 0.0064751264 0.24607562 0.22886004 0.10012965 0.20902266
0.4575666 0.32417879 0.22675107 0.052987933 -0.17469162 -0.217424 -0.10302756 -0.12086992
-0.1526488 -0.17755738 -0.064456135 -0.09060821 -0.08080398 0.051300388 0.09943992 0.0973566
0.018629592 0.0074848756 -0.20790474 -0.19307108 0.011503421 -0.101906024 0.0037857362 0.15986197
0.050809447 0.1192142 0.08354716 -0.024405668 0.01662567 0.10980733 0.14620903 -0.011719808
-0.19555306 -0.078643695 -0.1822429 -0.11149319 -0.038340963 -0.16865993 -0.07228722 0.056439534

conv2.bias f4 [32]
00000000: 9727 11be 68cc ee3a 278e 83be ffeb 16be
00000010: 0469 0bbe 574a 353e ddc3 8bbd d5e1 b7bd
00000020: 4eb3 da3d 7790 6f3e 1567 463e e864 80be
00000030: 7919 ae3e e073 09be f10e e33e 40bc c23d
00000040: 7002 d03e c770 b1be 025d a9bd eb61 0fbe
00000050: 2f19 d8bd fbc7 fbbe 4fed 0abc 7297 44be
00000060: dca5 5bbd 7eb2 05be e221 33be 2267 093c
00000070: 1bf0 f03e c692 83be f32b 11be 9081 8bbe
-0.14175259 0.0018218877 -0.2569439 -0.14738463 -0.13614279 0.1770414 -0.06824467 -0.08978621
0.10678731 0.23394953 0.1937526 -0.25076985 0.3400381 -0.13423109 0.44347337 0.09508562
0.4062686 -0.34656355 -0.08269693 -0.14002196 -0.105516784 -0.4917601 -0.00847943 -0.19198397
-0.053624973 -0.1305637 -0.17493394 0.008386405 0.47058186 -0.25697917 -0.14176922 -0.27247286

conv3.weight f4 [64, 32, 3, 3]
00000000: e7a5 c4bd e6d5 91bd dfb9 5cbd 4b38 abbd
00000010: ce0d 9ebd 949b 74bd 8620 b0bd a30e bbbd
00000020: b685 3bbd d570 073c d8a5 21bd 0588 933d
00000030: fe57 41bd 7b2b a03c 2132 4f3d b4d0 aebd
00000040: c331 493d 54b5 953d 7400 e23a 477d bdbd
00000050: 44fa f03c 7660 273d d96f 8abd 77ed 1c3e
00000060: da52 2b3e 23fe eb3c aa12 973c 15bf 03bc
00000070: 60a2 543c 5b66 debb 4720 06ba c4f8 88bd
00000080: 03e0 4a3d ad10 93bb 05ef cc3c c678 6a3c
00000090: fbb9 8ebd 3f34 60bd 5dec 353d 27e0 28bd
000000a0: 460d 28bd 3fe3 a7bc 2a2f 88bd d0d2 1abd
000000b0: 6b09 8c3c a62a e73c 0fbc ccbc 9c11 ff3c
000000c0: b82f fb3c 2523 acbc 3f21 bfbd c58f d9bc
000000d0: 1b07 0f3d 8472 94bd e088 f23b 7705 a03c
000000e0: 2d04 59bc dfcb 613b 8e64 43bd bfc6 d5bb
000000f0: ba93 e13c fdd1 043d 8788 46bd 17bc 02be
00000100: 9a8a 1cbd d895 b8bd 9978 74bd 3def 10be
00000110: 69be 40bc 0ab8 a3bd 20f7 99bb a5c7 5a3d
00000120: 90bc 33bd 300b 5ebd 65e8 a33d 4438 b03a
00000130: 476c 93bc d53e 143c e66c fcbc e798 883c
00000140: d48b d23d 78d6 f13c feba ab3a 3080 363c
00000150: bfcd 833d a16f c33d 03fc 5b3d 69ae e73b
00000160: 91b1 6cbd 63e0 813c 60e5 c33c c4ce a4bd
00000170: 9142 843a 336b 9f3d 3a6e 06bd 719d 01bd
00000180: 53b6 33bc e855 773b bcff a7bd 82d2 b5bc
00000190: 2a53 96b9 e58f 743d f79b 57bd 6385 abbc
000001a0: 71d7 613d 4502 83bd 70d8 a4bd 2085 08bd
000001b0: f1cb dbbd aaa6 2ebe 27f3 f03d fd9c c9bd
000001c0: 9bfd d6bd 82df b53c 2d2d d7bd 04d2 86bb
000001d0: 23a9 f13d becc cabd 8363 c9bd 8337 1b3d
000001e0: e36f 70bc a425 8ebd 5b09 80bd 9945 a3bd
000001f0: 6536 533d e222 b1bd 2fe0 ea3d 4e46 0c3e
00000200: 936d dcbb 1846 193e 2220 f53d b3d0 44bd
00000210: a48d e63d d2bb 5f3d 9bec 4dbd 1b5f b9b9
00000220: 3c28 35bd dea7 463d 5bcb 0fbd 7714 fd3b
00000230: 7c45 353d 5980 1c3d 4a18 07bd 3c84 1a3d
00000240: 2d2f e7bd 63f1 22be 15f1 4dbc 5327 2abd
00000250: 770a 42be 70e9 8abd 053d 88bd ab49 16be
00000260: dbee adbd 3c09 b5bd f204 6bba a2ac 3b3e
00000270: 981f b3bd 4e87 ce3c 3d22 eb3d e1c6 9dbd
00000280: a125 52bd 4f57 8b3d e912 66bd 3690 f13c
00000290: 5143 adbd 760b bb3a f657 55bd 8972 403d
000002a0: 22ee 883d 9b4e acbd 953e a0bd 8e38 853d
000002b0: 65a2 8b3d 37cf 2e3d 34ed 7fbd 157d 6b3d
000002c0: cb9c 803d c963 f23d d6fd a33d f3db c43c
000002d0: deda 97bb 909b b2bc 46d9 753b c303 733d
000002e0: 2b9f cebc 6184 f9bd d62b 09bd 8509 a63c
000002f0: 2e38 efbd 93d8 b3bc 793c a43d d651 153d
00000300: 4ff4 8e3c 3277 163d 4f5b 453d c506 7abc
00000310: 3d2e 10bb 3650 1b3c 3714 9d3d 2810 043d
00000320: c535 013d a220 33bd 52f2 913d 4723 773d
00000330: c738 1dbd 8ed6 dc3c e5db b43c 4ede c6bd
00000340: 7091 18be e005 073d d817 22bd 0a3b 57be
00000350: 9ac2 953d 96c5 efbc e036 83bd c8c4 643d
00000360: 2d8a 4b3d 7b80 553d 97c3 0cbc 9505 6a3d
00000370: 26ef 03bd 4498 23bc b0f6 3c3c bc56 42bd
00000380: 95ac 40bd 3c4a bbbd 7814 29bd 8dde bcbc
00000390: 64a1 71bd db82 25bd fa32 913c f30a 83bd
000003a0: 34c8 89bd 04df d8bc df5b bdbc a60a 04be
000003b0: 9ce3 183d e01e 9ebd 8886 17be 108c f13c
000003c0: 4e23 1c3d 397d 983c f001 eb3d df39 30bc
000003d0: 84df fb3d 33f6 a43b bcd7 eb3c cff9 a03d
000003e0: 903a 47bd 8772 c7bc 51f4 7d3d ab36 523c
000003f0: c7e3 383d ff17 d03d f206 98bd a948 a23d
-0.09601956 -0.07120876 -0.053888198 -0.083603464 -0.07717477 -0.059718683 -0.08599953 -0.09133651
-0.045781814 0.008266647 -0.0394648 0.07203678 -0.047203057 0.019551983 0.050584916 -0.08535901
0.049119722 0.07309976 0.0017242567 -0.092524104 0.029416211 0.040863477 -0.067596145 0.1532496
0.16730824 0.028807705 0.018441517 -0.008041163 0.012978166 -0.006787104 -0.0005116504 -0.06688073
0.04953004 -0.004488072 0.025016317 0.014311021 -0.06969067 -0.054737326 0.044414867 -0.041229393
-0.041028284 -0.020494102 -0.06649621 -0.037798703 0.017094335 0.028218579 -0.024992017 0.031136326
0.030662403 -0.021012852 -0.09332513 -0.026557812 0.034918886 -0.072484046 0.0074015707 0.019533856
-0.0132456245 0.0034453792 -0.04770332 -0.0065239365 0.027536262 0.032426823 -0.048470046 -0.12767063
-0.03821812 -0.090129554 -0.059685323 -0.14153762 -0.011764147 -0.07994087 -0.004698649 0.053413052
-0.043881 -0.054209888 0.0800331 0.0013444503 -0.017995967 0.009048183 -0.030813646 0.016674472
0.10280576 0.029521212 0.0013101993 0.011138961 0.06435727 0.09542776 0.053707134 0.007070352
-0.057786528 0.015854066 0.023913085 -0.0804725 0.0010090639 0.077841185 -0.032819964 -0.03164429
-0.010968762 0.0037740413 -0.08203074 -0.022195105 -0.00028672192 0.05970754 -0.052638974 -0.020937627
0.0551371 -0.06396917 -0.08049095 -0.033330083 -0.10732258 -0.17055765 0.11765128 -0.09844396
-0.1049759 0.022201303 -0.105066635 -0.0041143913 0.117998384 -0.09902333 -0.098334335 0.037894737
-0.014675113 -0.06940773 -0.062517844 -0.07972259 0.051565547 -0.086492315 0.11468541 0.13698694
-0.0067269295 0.14968145 0.119690195 -0.048050594 0.112574846 0.05462248 -0.050274473 -0.0003535681
-0.044227824 0.048499934 -0.035106044 0.007723387 0.04425572 0.03820834 -0.03298215 0.037723765
-0.11288295 -0.15912394 -0.0125696855 -0.04154141 -0.18949305 -0.06782806 -0.066522636 -0.1467654
-0.08492824 -0.08839652 -0.00089652755 0.18327573 -0.087462604 0.025211003 0.1148114 -0.07703949
-0.051305417 0.06803762 -0.056170378 0.02948771 -0.08460105 0.0014270383 -0.05208584 0.04698423
0.06686045 -0.0841343 -0.078244366 0.065049276 0.06818084 0.042678084 -0.062482074 0.057492334
0.06279906 0.11835439 0.080074 0.024030661 -0.0046342453 -0.021802694 0.0037513538 0.05932976
-0.025222382 -0.121834524 -0.03348907 0.020268211 -0.11680637 -0.021953857 0.08019347 0.036454998
0.01745048 0.036734767 0.04818278 -0.015260403 -0.0022000216 0.009479573 0.07669871 0.03224197
0.03154542 -0.043732293 0.07126297 0.060336377 -0.038384225 0.026957776 0.02207751 -0.0971037
-0.1489923 0.032964587 -0.03957352 -0.21018615 0.07312508 -0.029269021 -0.06406951 0.055851728
0.04969232 0.05212448 -0.008591554 0.05713423 -0.03221049 -0.009985033 0.011533424 -0.047445998
-0.047039587 -0.091450185 -0.041279286 -0.02305534 -0.058991805 -0.040407997 0.017724503 -0.06398573
-0.06727639 -0.02647353 -0.023115097 -0.12894687 0.03732644 -0.07720733 -0.14797413 0.029485732
0.038119607 0.018614398 0.11474979 -0.010755985 0.122984916 0.005034232 0.028789394 0.07860147
-0.048639834 -0.024346603 0.062000576 0.012830417 0.0451391 0.10160827 -0.074232 0.07924015

conv3.bias f4 [64]
00000000: 66c4 c43d 1489 ebbb 4240 43be 8582 2f3d
00000010: aaeb 81bc ca36 87bc 42e9 39bd e2b3 70be
00000020: e9b7 74bc c62f 49be c5c7 1f3c 31ab ba3d
00000030: cae8 093e 37a5 68be 0db8 4c3e b7b9 65bd
00000040: 885f f43d c767 19bc 2f54 51bd 14dc cfbd
00000050: ec62 eabd 824f f6bc 0c1a 12be be90 e2bd
00000060: f19e c33a c162 843d a219 8a3d 6175 013e
00000070: 5120 a6bd fca9 b1bd 674c 95bd 983e 103e
00000080: 3ac8 073e 96e2 833c f39a a9bc 1e23 613e
00000090: 8d94 a7bd 4173 01be 8162 1abe 2f3c 25be
000000a0: cb46 10be 8624 2b3c 3a29 aebd bef8 24bd
000000b0: f65b 93bd 311f 7c3e cb3d f13d 410c 603d
000000c0: ad7b d6bd 6f68 553e ad4a b2bd a3e6 43bd
000000d0: 8b6d 40bd cc77 f73d 645e d3bd 2f07 f1bd
000000e0: f791 a1bd 1832 e0bc 4516 0d3d f76c d93c
000000f0: 506a a93d 0b16 3bbe 67ad 073e cfb2 48be
0.096077725 -0.007187972 -0.19067481 0.042849082 -0.015859444 -0.016505618 -0.045388468 -0.2350612
-0.014936426 -0.1964713 0.009752219 0.091146834 0.13467708 -0.22719274 0.19992085 -0.056085315
0.11932284 -0.009363121 -0.051105674 -0.101493984 -0.11444649 -0.03006721 -0.14267749 -0.11062764
0.0014924688 0.06464148 0.0674317 0.12642433 -0.081116326 -0.08675 -0.07289963 0.14086378
0.13259974 0.016099256 -0.020703768 0.21986052 -0.08182631 -0.12641622 -0.15076639 -0.1613624
-0.14089505 0.01044572 -0.08503957 -0.04027628 -0.071952745 0.24621274 0.11779364 0.054699186
-0.10472808 0.2084062 -0.087056495 -0.047827374 -0.04697947 0.12083396 -0.10320738 -0.11768948
-0.07889169 -0.027367637 0.034445066 0.026541216 0.082722306 -0.18270127 0.13249741 -0.1959946

fc1.weight f4 [200, 1024]
00000000: f790 d2bc acc9 25bd abbc cabb 3f34 43bd
00000010: 25e8 2abd 1c8b 6bbd 14f2 0c3d 40e2 3abd
00000020: 19fb bebc 3ce7 ebbc aed7 b63c c93a aebc
00000030: 31f5 353c fe4b 42bb 9610 bc3c c3bc 063d
00000040: 893c 84bd 8626 883b 545a 1a3d 7e0a 64bd
00000050: ec1e cdbc 2d9e 173c 8bce 3bbd e12f d2bc
00000060: af8f 3bbd e09a 1fbd 8483 42bd 3425 963c
00000070: 71cb 06bc d0b0 4b3c 9bf3 ad3c 8f67 8b3c
00000080: dd11 8cbb 2def 063c 927e 1abd 525d 073c
00000090: d535 2cbd 450b 07bd 3768 57bd d71f febc
000000a0: f6e2 11bc 4a00 c3bc b5f5 b03c e951 55bd
000000b0: c8f9 f93c 7e14 0c3d 60f5 4f3d fa6c e4bb
000000c0: 7474 f43c f79b bb3a 66c1 17bd 7328 79bc
000000d0: ae18 bc3c fc15 f03c 90db e53b ca74 a7bb
000000e0: ae52 fa3c 4dcc d5bc 6f8d 4f3d 7a43 563c
000000f0: 1e02 553c 0b63 72bd 323b a6bc 2a75 223c
00000100: d35c c63b 4db1 7bbb 4233 6dbc cb3a ddbc
00000110: 0482 59bc 381e 6f3d 29a9 92bd 7524 45bd
00000120: 9f83 25bd a2cb 583c 7ac6 fcbc a17f cbbd
00000130: 7824 92bd 266e 1a3c c29b 0fbd cd5c 803b
00000140: ff60 2e3c 1c64 0abd 6668 953c 9649 8d3c
00000150: 52e1 f73c 3367 8cbc f5a8 313d e6aa 53bb
00000160: 9aab 4e3c 499a 05bd c77f 353a 250b 3a3c
00000170: 1a2f 0f3d 8bc8 11bc 0a56 4bbd 4265 7c3c
00000180: bf3d f83c c617 1dbd 8440 eebc 5d59 b33c
00000190: 48ba 023b dee8 733c 09ef b03c d91d 193d
000001a0: ace1 e93a 6620 8f3c 7266 e23b 45f0 80bc
000001b0: b5ce d6bb f6fd 89bb 7c8e 1a3d 5385 e7bb
000001c0: 1d7e db3b 4800 efba ac50 b0bb 7ef1 2b3d
000001d0: b3f4 503c e9b5 613d ab39 8a3c 2cbf 6e3d
000001e0: 3225 433c 0d92 d13c 070d 093b 9281 633c
000001f0: 208d 6d3c e08a 25bd 0636 cbbc 284d 0a3d
00000200: 9fe7 963c cc4e fc3c ceeb da3c 1394 1c3a
00000210: 88f4 9dbc 1170 f439 eb5c 8a3d dea9 31bc
00000220: cc91 3dbb 8acf d2bc 4090 09bc 1b7e 2d38
00000230: 88a1 b53b 4cf4 87ba 1a1d 8abb d56d 3fbc
00000240: 2cff 9d3c 3c1a 0cbd 79cf 553c 3eeb 9abb
00000250: 6142 ef3c e3fe 263d 9362 42bc 8513 133d
00000260: bdf4 093d 7566 b1bc b91a 623b 41dd bc3c
00000270: a105 4abc 6314 36bd 6851 36bd 8fc6 18bc
00000280: fd54 9a3c 295c 0e3d 17d3 373b a169 013a
00000290: 97c5 103c 6746 5dba 5fde ca3c b362 c33c
000002a0: b90d ebbb 5900 a1bc 3076 453d 1e9d 663c
000002b0: c3f3 3ebd 06ff 0abd a358 ddbc c74b 2e39
000002c0: a711 6c3c 73da 803c e5d6 90bc fd45 37bd
000002d0: 4541 ccbc d748 5a3c 1b07 1e3d c05d fdbc
000002e0: 5bb1 1f3d b810 28bd 540c 93bd 7b40 b1ba
000002f0: 9bc4 bfbc 45dc f3bb 56fa 40bd 995e 4ebd
00000300: 3d56 b03c d649 1abd 9e0e 85bc 33f2 dabc
00000310: 772a f5bb 5ea7 573c 0521 4c3a 1e76 2abd
00000320: 0246 2f3c 3ee8 1b3c f3cf 903c 468c 60bc
00000330: f11e 943c 42a1 ccbb 7c9c 003b fc51 a3ba
00000340: 3cf8 3a3b 9ba3 063d c694 093d fdc8 913c
00000350: 3e49 5dbb 851c 3cbc 6c9d c13b 8171 373b
00000360: c629 28bd 1584 7b3c 6483 b53c 5588 22bc
00000370: fe6d 66bc 00ca 79bc 61e0 543b 46c7 3bbd
00000380: 9f38 81bd 759a e2bc 34e1 7dbd 4536 8dbd
00000390: 0702 bc3c 5286 31bd 3b2e 7d3c f78c 99bc
000003a0: def1 7d3c 100d ab3b 09fe a2bc 0219 e5bc
000003b0: 7265 5e3b 2208 b43b bdb2 debc 3dff 22bd
000003c0: f0e3 38bd 4a84 a2bc ddc0 6bbc 0172 93bc
000003d0: 4f9c 89bd 4774 243c 7e26 4c3b 2294 b4bc
000003e0: f4f3 bfbc af72 a03c 6a3a 483c f9b7 cc3c
000003f0: 71a7 aabc 3e75 4f3d d6da 733c e660 513d
-0.02570389 -0.040475532 -0.0061870418 -0.047657248 -0.041725297 -0.057505712 0.03441055 -0.045625925
-0.023313092 -0.028796785 0.022319641 -0.021268265 0.0111058215 -0.0029647346 0.022957128 0.03289486
-0.06456859 0.004154983 0.0376838 -0.05567407 -0.025039159 0.009254021 -0.04585127 -0.025657596
-0.045791324 -0.03896606 -0.047488704 0.018328287 -0.008227215 0.012432292 0.021234324 0.017017154
-0.0042745904 0.008235735 -0.037718363 0.008261995 -0.042043526 -0.03296973 -0.05258962 -0.031021042
-0.008904209 -0.023803849 0.021601537 -0.05208007 0.030514613 0.03419923 0.050771117 -0.006970999
0.029840685 0.0014313449 -0.037049673 -0.015207398 0.022960987 0.029307358 0.0070146993 -0.005110358
0.030557003 -0.026098395 0.05067199 0.013077611 0.013000993 -0.059176486 -0.020291898 0.009915629
0.006053546 -0.003840524 -0.014477553 -0.027005574 -0.013275627 0.05837843 -0.07161171 -0.04813047
-0.040408727 0.013232144 -0.03085636 -0.09936453 -0.07135862 0.0094256755 -0.03506065 0.0039173127
0.010643243 -0.033786878 0.018238258 0.017247003 0.030258808 -0.017139053 0.04337402 -0.0032297908
0.012614155 -0.03261784 0.00069236424 0.011355196 0.03495703 -0.008897911 -0.0496426 0.015405001
0.03030288 -0.03835275 -0.029083498 0.021893198 0.0019947458 0.014887063 0.021598356 0.03738198
0.0017843745 0.017471503 0.006909185 -0.01573957 -0.006555403 -0.0042111827 0.03773354 -0.007065454
0.0066983835 -0.0018234337 -0.0053807106 0.04197835 0.012753653 0.055105124 0.016873201 0.058287784
0.0119107235 0.025582338 0.0020912306 0.013885872 0.014498979 -0.040415645 -0.024806034 0.03376499
0.018420992 0.030799292 0.026723769 0.00059729925 -0.01928164 0.00046622803 0.06756004 -0.010843722
-0.0028926013 -0.025733728 -0.008396208 4.136386e-05 0.0055429377 -0.0010372489 -0.004214895 -0.011683901
0.019286714 -0.034204707 0.013049954 -0.00472775 0.029206457 0.040770423 -0.011864322 0.035907287
0.033680666 -0.0216553 0.0034500791 0.02305472 -0.012330444 -0.044453036 -0.04451123 -0.009324684
0.018839354 0.03475586 0.0028049403 0.00049366994 0.008836172 -0.0008440972 0.024764238 0.023850774
-0.0071732667 -0.019653486 0.048208416 0.014075546 -0.046619188 -0.033934616 -0.027019804 0.00016622162
0.0144085055 0.015729165 -0.017680595 -0.04474448 -0.024933467 0.01332303 0.038580995 -0.030928493
0.0389875 -0.04103157 -0.07180086 -0.0013523245 -0.023409178 -0.0074420297 -0.04711374 -0.050383184
0.021525497 -0.03766807 -0.016242322 -0.026726818 -0.007481869 0.013162462 0.0007786903 -0.04161655
0.0106978435 0.00951582 0.017677283 -0.013705319 0.01808116 -0.0062448094 0.0019624522 -0.0012460346
0.0028529307 0.03287087 0.033589147 0.017796034 -0.003376558 -0.011481409 0.0059086587 0.0027991238
-0.041055463 0.015351315 0.022157378 -0.009920199 -0.01406431 -0.015245914 0.0032482373 -0.04584434
-0.06309628 -0.027661541 -0.06198235 -0.06895117 0.022950185 -0.04334099 0.015452917 -0.018743975
0.01549956 0.005220063 -0.019896524 -0.027966026 0.0033934978 0.0054941336 -0.027184838 -0.039794195
-0.045139253 -0.019838471 -0.014389244 -0.017998697 -0.067192666 0.010037488 0.0031150873 -0.022043291
-0.023431756 0.019585935 0.012220958 0.024990069 -0.020831795 0.05064892 0.0148837175 0.0511178

fc1.bias f4 [200]
00000000: 5bf8 fabc a712 903b 4186 083e 61a4 85bd
00000010: 26a9 3dbc 6b1c 00bc c0f7 0cbd 24dd c33c
00000020: e5d6 caba 7249 7ebc e324 163d 2373 133d
00000030: 1798 d2bc 243d 5f3d 4af4 86bc 61ec a53c
00000040: 56fc a5bc c454 9cbc e8ed 68bd 2dbb a23d
00000050: 6810 293e 08e8 d23c 4405 a73d f04c 98bd
00000060: 197e 863c 2516 0e3e f4c4 2cbc bf99 be3d
00000070: c3c2 07bd 8ed8 2e3d c759 153e ad25 ea3d
00000080: 76c3 2fbd cee0 cfbc 08cd d5bc 7182 a4bd
00000090: ee7d 6b3a 27c4 2cbd 975a 8bbb c735 50bc
000000a0: 8f27 f0bc 5c1a 8f3d 044f aa3d a93c 463c
000000b0: fd13 063e 4060 483d 9d93 933d 8a84 35bd
000000c0: c8ed 203d d510 803c 14d6 a8bc 43e3 193c
000000d0: 8e6c 1dbc 6a18 54bd 17e8 ecbc 8262 a03c
000000e0: 543e 5bbd 4491 01bd 9cfa 033d d28f 52bb
000000f0: 1799 ed3d b5d5 b8bc fab0 d03a 18f6 61bd
00000100: 4944 33bd 9c5f 86bc 8e1a 203d 81e5 eabc
00000110: 676f a0bd c30a a93c f846 82bc b47e aabc
00000120: ab6f 02bd 3021 1b3d 00b2 953c e2a4 8abc
00000130: cde3 8bbd 522a 093d 0766 013c 2861 9ebc
00000140: 14f7 dd3b 2605 c03c c416 07bd 576a 623c
00000150: c436 3f3d 06bc de3c b6dd 853c 64ce 733d
00000160: 8590 84bd 2312 913d ae0b 5c3c 0f1f ac3c
00000170: 9a78 02bd e34d a53d 5406 413d 495f 72bd
00000180: bd2a 38bd ffe8 84bd 537e 26bd db54 683d
00000190: 847a a73d f653 7fbd b170 493d 7557 d6bc
000001a0: b8a0 0bbe 53bf de3d 06c5 933d 99e5 ebbc
000001b0: eb3b 4e3d 695e 96bb a0ce 763d 84f9 703c
000001c0: 5b69 af3d 657a 1abd ea3a 593d 3213 993d
000001d0: bb46 0839 f0b3 cd3b 6462 5dbc 7c61 94bc
000001e0: f582 be3d a4b4 d7bc 9d16 2e3c a58b e6bc
000001f0: 2fb3 093e f289 943b 7cbe c7bd aa52 893c
00000200: 7ead 4e3b 5f75 c43d 2c58 903d 1d2a 8fbb
00000210: 2fd3 ccbc d8c6 e83d 0d6e 283c 6e52 8c3d
00000220: 74cd 783d 1d0f be3c dc26 233e 7470 9a3d
00000230: 1f98 e9bc 3712 9e3d dea2 ca3d 6b4d 2ebc
00000240: f545 7b3d 5d4b 8bbd d1c4 163b 1bcd 04bd
00000250: 2fc6 8abd 608f fa3c 8d3a ba3d 4fb7 953d
00000260: f2ce 513b 0f36 3cbb e146 18bc 2230 debd
00000270: 147c 853d 1da4 a4bc cc88 80bc 82ee 3e3d
00000280: 28f2 4a3c 0a07 473d 395b d03d fac3 d63b
00000290: cdf8 933c 5300 f3bc 3295 00bc 82ae 2dbd
000002a0: 476a 953c 5acb f83c 1172 453d 5144 87bd
000002b0: 7995 ac3d c9f0 8f3c 7717 1b3b dfcf 9c3d
000002c0: 54d8 2ebd 3786 82bd 552f d83c dc32 ae3c
000002d0: 1ff1 24bd a61e cf3d a45e 753c da5b b13b
000002e0: 9435 2e3d 1f7f 7bbd 8a40 db3c 4b8f f43c
000002f0: c0cb 383c 8ddf a03d aaaf 263e e8ce ca3d
00000300: 5a4d 2d3c 4da3 083e e025 b0bc e2e7 973d
00000310: 4100 453c 74ea 863d d0fe d63b bcb7 8e3d
-0.030636003 0.004396755 0.13332464 -0.065254934 -0.011575973 -0.007819275 -0.03441596 0.023909159
-0.001547542 -0.01552044 0.03665627 0.035998475 -0.025707288 0.054501668 -0.016473908 0.020254316
-0.020261925 -0.019083388 -0.05686751 0.07945857 0.16510165 0.025745407 0.08155301 -0.0743655
0.01641755 0.13875635 -0.010545004 0.093066685 -0.033144724 0.04268699 0.14585029 0.11432967
-0.042911015 -0.02537575 -0.026098743 -0.08032692 0.00089833036 -0.042179253 -0.0042527425 -0.012708134
-0.029315738 0.069874495 0.08315852 0.012099423 0.13093562 0.048919916 0.072058894 -0.044315852
0.039289266 0.015633026 -0.020609893 0.009392562 -0.009608401 -0.051781096 -0.028919263 0.019578222
-0.053526238 -0.031632677 0.03222142 -0.003212918 0.11601465 -0.022562841 0.0015921884 -0.055166334
-0.043766294 -0.016403012 0.039087825 -0.02867389 -0.07833748 0.020635014 -0.015902981 -0.02081237
-0.031844776 0.037873447 0.018273354 -0.016924325 -0.06830559 0.033487625 0.00789786 -0.019333437
0.006773839 0.023439955 -0.032980695 0.013819299 0.046683088 0.027189266 0.016341072 0.059523
-0.064728774 0.070835374 0.013430519 0.021010904 -0.031853296 0.08071496 0.047125176 -0.059172902
-0.044962633 -0.06489753 -0.040647816 0.05672155 0.08177665 -0.06233593 0.049179737 -0.02616475
-0.13635528 0.10876336 0.072153136 -0.028796004 0.05035011 -0.0045888913 0.060255647 0.014707927
0.08565017 -0.03771438 0.0530347 0.07474364 0.0001299632 0.0062775537 -0.013512228 -0.01811289
0.09302322 -0.026331253 0.010625509 -0.02814276 0.1344726 0.004533046 -0.09753129 0.01676305
0.0031536515 0.09592699 0.070480675 -0.004369034 -0.025003044 0.113660514 0.010280144 0.0685166
0.06074281 0.023200566 0.15932792 0.0754098 -0.02851492 0.07718318 0.09894346 -0.010638575
0.061346013 -0.06801484 0.0023005495 -0.032422166 -0.06776082 0.030585945 0.09093199 0.07310354
0.0032014218 -0.0028718745 -0.009294243 -0.10849024 0.06517807 -0.020097787 -0.01569023 0.046614178
0.012386836 0.048590697 0.10173649 0.006554124 0.018062973 -0.02966324 -0.007848071 -0.04240275
0.018239154 0.030370403 0.048204485 -0.06604827 0.08426947 0.01757087 0.002366511 0.07656836
-0.042686775 -0.06373256 0.026389757 0.021264486 -0.040269013 0.101132676 0.014976177 0.005412561
0.042531565 -0.06140053 0.026764173 0.029853484 0.011279047 0.07855139 0.16277948 0.099027455
0.010577524 0.13343544 -0.021502435 0.07417275 0.012023986 0.06587687 0.0065611377 0.06968638

fc2.weight f4 [10, 200]
00000000: 23e9 6f3d dce9 063c 9afe 4abe d468 da3d
00000010: 1e90 443e 64ef 91bd c458 30be 13e1 d4bd
00000020: 3862 40be d246 0c3d f320 7b3e 95f2 55be
00000030: 8306 2dbd 752d 4cbb 3321 88bd 1dcd b83d
00000040: 7451 e23d d4d3 1e3e e92d 58be 928d fe3d
00000050: 1135 aabe 518e 793a 4d29 b1bd 7fd1 9c3e
00000060: 029b 263e 1b7d 5a3d fe25 11be ffad 063c
00000070: 40f2 9b3d c0a8 c93d ccbc 913c 251a 173e
00000080: 907f 3a3e 1f17 7c3e 191d 4cbc 972e 48bd
00000090: a7f3 8a3e cc8b 133e 5f1f c3bc cfd8 123e
000000a0: 5fdb 96bd 3247 8fbd dfbb 773d 46c0 a13c
000000b0: 8231 2bbe b58b d83d 987c fabd 4589 cb3c
000000c0: 7a6f 323e e082 653e 5edb a8bc 65d0 933c
000000d0: 73e8 713e 955b 46be 9f15 1fbe 0b1e 8b3d
000000e0: 4a26 e43d d626 9b3d 5d2a 463e d4e5 ec3b
000000f0: 8176 613e 1d1e b4bd 8ae2 30be 4f98 313e
00000100: a84a a13e 22e3 ddbd e689 55bd e7bc 21bd
00000110: 486f a03d 5496 7ebe 9136 c83d 4736 e23a
00000120: 9feb 213e 1d18 4e3e aa93 2dbe 9a18 73be
00000130: 83f3 e23d d6fc 593e 33c1 273e 28a0 193d
00000140: 1227 233e f1cc 1a3e 441d 7f3d 194c 423e
00000150: b8dc 2fbe 3a8f b83d 3293 f3bc a208 103d
00000160: 249c 73bc 8870 ce3d c94a 833e 3e05 4f3e
00000170: dbb0 8bbe fb2d b53d 9d82 8bbd 2e70 19be
00000180: 7190 c33d 0463 7b3c f6ea 82bd 0f19 5bbd
00000190: 77a7 fe3c f442 033e 7a2d d03d 4604 d73d
000001a0: 14cd 38bb 05f7 18be aa8e d4bd ca00 55bd
000001b0: dea1 bd3d 1b88 8b3e 4963 b6bd b393 4b3e
000001c0: 7a7d afbd 3413 0b3e e171 76be e893 653e
000001d0: 9867 303e eb53 423e 49f6 06be 14a5 9e3d
000001e0: e230 42be 3d58 f13d 173c 90be a52c 74bd
000001f0: 7691 96be c377 ab3d 85df a33c 48f3 823d
00000200: c76f 293e 1553 283e 5dd4 9cbc 3e14 833d
00000210: 32fc 253e 5aa4 adbe cf77 5abe 28ee 95be
00000220: 86e2 a5bd 62f9 f63d 6147 313d ecc2 2fbb
00000230: 2e9d 273d a191 483e 5499 fd3d fa23 ebbd
00000240: dc84 1dbd 5b29 8a3d e2df fe3d 938d f43d
00000250: 66b8 95bd c60c da3d 7d7e d63d 1d7d 313d
00000260: 8def 37be b4f0 2cbe b427 0e3e 429e 88bd
00000270: b3fb 743e 6a8b 6fbd 37dc 79be 12cf 5dbe
00000280: 81ed 53bd 1437 c13c 35f8 e1bd 5b15 20be
00000290: ee6a 5bbd 21a8 b8be 479c 163e 8825 fb3d
000002a0: 919a 613e b013 813d 4ee3 7e3d 441c c4bd
000002b0: 4b50 28be 03e6 1a3e 3ac0 6c3d f2d1 8ebd
000002c0: 7318 c93d c500 a23d a462 87be 194b b5bd
000002d0: 38c1 04be 7366 00bd e1f9 453c 14ef 8abd
000002e0: 8a29 44be b1c3 34bd 6a86 273e 676a 06be
000002f0: 0313 45be 55d2 02be 8da8 27bd 04da 50bd
00000300: 495e 9bbd c22f 183e 3e35 b5bc f32a 8abe
00000310: 18d1 783d d35b 54be ac09 8ebd 849e a2be
00000320: ccc2 1abe 0055 d33d 3c4d cfbd 4eb0 853e
00000330: 2970 7c3e 3139 3a3e ecdd 89be e75c 873e
00000340: bf7d 273e 01c5 8b3b 22d6 73be 6dc0 903d
00000350: 2527 eebd 2425 c23d 337b 553e ad43 303d
00000360: 463f 46be 5836 453d 872e 5c3e 9039 3f3d
00000370: 78ac 62be f986 49be 154e f0bd d862 323d
00000380: a1d4 0cbe 0cce 3bbe 3e11 1c3e b37c 3b3e
00000390: 3707 0d3e bffa 2abd 94bd a2bc 4825 3abe
000003a0: dff2 653e d4a6 883d c5e0 f6bc 53a0 6a3e
000003b0: 51e6 46be 96fc b93c fe62 2dbd 4b64 84be
000003c0: d7e9 9b3d 2524 a53c dbab f0bd 3748 13be
000003d0: d87c b1bd deef d1bd 5684 7abe 55cc 5e3e
000003e0: 7e47 97bd 485d 10be 35c1 003d 4d2b b0bd
000003f0: e651 663e a839 133e 9d5b 333e 9d30 05be
0.058571946 0.008234467 -0.19823685 0.10664526 0.19195601 -0.07125738 -0.17221361 -0.10394492
-0.18787467 0.034247227 0.24524288 -0.20893319 -0.04224254 -0.0031155024 -0.06646957 0.09023497
0.11050692 0.15510494 -0.21111263 0.12429346 -0.3324361 0.0009519803 -0.086504556 0.30628583
0.16270068 0.053341966 -0.14174649 0.008220195 0.07614565 0.0984664 0.01779022 0.14756067
0.18212724 0.24618195 -0.012458109 -0.048872557 0.27139017 0.14408797 -0.02381867 0.14340518
-0.073660605 -0.06996001 0.060481902 0.019745003 -0.16718104 0.10573522 -0.122307956 0.024845729
0.17425337 0.22413206 -0.020612415 0.018043706 0.23623829 -0.19370873 -0.15535592 0.067928396
0.111401156 0.07575767 0.19352098 0.007229546 0.22017862 -0.08794806 -0.17273918 0.17343257
0.3150227 -0.10834338 -0.052133463 -0.039486792 0.07833725 -0.24862033 0.09776033 0.0017258608
0.15812539 0.20126386 -0.1695086 -0.23739854 0.110816024 0.21287856 0.16382293 0.037506253
0.15932873 0.15117241 0.06228377 0.18974341 -0.17174041 0.09011693 -0.029733274 0.035164483
-0.01486877 0.100800574 0.25642994 0.20216843 -0.27283368 0.08846661 -0.06812022 -0.149842
0.095490344 0.015343431 -0.063924715 -0.053490695 0.031085713 0.1281851 0.10164924 0.10498862
-0.0028198408 -0.1493798 -0.103787735 -0.052002706 0.09259389 0.27252278 -0.08905656 0.19880562
-0.08568855 0.13581544 -0.24066879 0.22419703 0.17227018 0.18977325 -0.13179888 0.0774633
-0.1896396 0.11784408 -0.28170845 -0.05961289 -0.29407853 0.08372452 0.020004043 0.063940585
0.16546546 0.16437943 -0.019144231 0.06400345 0.16209486 -0.33914453 -0.21334766 -0.2928326
-0.080998465 0.12059285 0.043280963 -0.0026819063 0.040921383 0.19586803 0.12382761 -0.11481471
-0.038456783 0.06746169 0.12445046 0.11941066 -0.07310562 0.106469676 0.104733445 0.043332208
-0.17962475 -0.16888696 0.13882333 -0.0667081 0.2392414 -0.058482565 -0.24400412 -0.21661022
-0.051740173 0.023585834 -0.1103367 -0.15633146 -0.053568773 -0.36065772 0.14708053 0.12263018
0.22031619 0.06302583 0.062228493 -0.09575704 -0.1643688 0.15126805 0.05780051 -0.06973638
0.098191164 0.07910303 -0.26442444 -0.08852214 -0.12964332 -0.031347703 0.012083502 -0.06783882
-0.19156471 -0.04413194 0.16359869 -0.13126527 -0.19245534 -0.12775548 -0.040932227 -0.050989166
-0.07586343 0.14861968 -0.022120114 -0.26985893 0.060746282 -0.20738153 -0.069354385 -0.31761563
-0.15113372 0.10318947 -0.10122153 0.26111072 0.2465216 0.1818588 -0.26927125 0.26438066
0.16356562 0.004265428 -0.23812154 0.07067952 -0.1162856 0.0947974 0.20847778 0.04303329
-0.19360074 0.04814753 0.21502124 0.046685755 -0.22136104 -0.19680394 -0.11733643 0.043551296
-0.13752986 -0.1834032 0.15240952 0.18309288 0.13772283 -0.041743036 -0.019865789 -0.18178284
0.22455929 0.06672445 -0.030136475 0.22912721 -0.19423796 0.02270345 -0.042330734 -0.25857767
0.07612961 0.020158837 -0.11751529 -0.14383017 -0.0866639 -0.10250829 -0.24464545 0.21757634
-0.07386683 -0.14098084 0.031434257 -0.08602009 0.2249218 0.14377463 0.17515416 -0.13006826

fc2.bias f4 [10]
00000000: 4a8a 04be a4cc f4be 2081 15bd 2cac 013e
00000010: 72c1 183f ba62 93bd ee83 cf3d 174d 15be
00000020: 5355 9b3d 56c1 6bbe
-0.12943378 -0.47812378 -0.036500096 0.12663335 0.59670174 -0.07196565 0.101325855 -0.14580189
0.07584634 -0.2302297
